Test.pth (torch, 2783 bytes, 5 tensors)

lstm.weight_ih_l0 f4 [16, 1]
00000000: ede1 e13e a127 003f 03e7 873d 2ba9 353f
00000010: 1758 cebe 6251 073f d5f8 12be aec0 213f
00000020: 0108 90bd 83ab 17bf 321d 1bbf 355f 14be
00000030: 7450 d83d 8e15 193f f4e5 103f 525e c93e
0.4411768 0.5006047 0.06635859 0.70961255 -0.40301582 0.52858555 -0.14352734 0.6318463
-0.070327766 -0.5924608 -0.60591424 -0.14489444 0.1056222 0.59798515 0.5660088 0.39329773

lstm.weight_hh_l0 f4 [16, 4]
00000000: c84e 00bf def9 dfbe e990 80bd 7fc4 fbbe
00000010: d1d6 b73e 5c7a 353e 625c 1fbf 45e7 793e
00000020: 392d a33d c094 a8be 9b05 293b 3702 99be
00000030: 49f0 033e 4063 3b3e e1d8 d53c 98ce 2abe
00000040: 1176 d8bd 6b5f dc3e f1f1 b33e 9d03 8ebe
00000050: 648e d73e da1d 313e 92c0 65be b621 39bf
00000060: 345f 753c 030a 34bf 546f 0bbf 84b0 30be
00000070: 40f4 e8bb ab50 2bbf e8fa 24bd 3e99 ca3d
00000080: b8f4 c93e 1ce9 2f3e c2e9 2e3f f243 073f
00000090: 87bf fcbe 9964 c43d 2c90 a93e 41d4 183f
000000a0: a6ca b83e 4489 2b3f 411f 08be 1865 9cbe
000000b0: 42b3 303e 7987 513e e872 8abd 5684 373e
000000c0: a306 e8bb 2aac 393d f3b5 f8be 6f16 c2be
000000d0: 7a82 dd3e 4688 4f3c f5d5 c4bd 5a60 eebe
000000e0: 31fe b5be b4b1 fabd 7f68 41bf 227b edbe
000000f0: e97f b73e ba92 15bf 0777 1abf cbf6 26bf
-0.5012021 -0.4374532 -0.062776394 -0.49173352 0.3590608 0.17722458 -0.6225034 0.24404629
0.0796761 -0.32925987 0.0025790695 -0.29884502 0.1288463 0.1829958 0.026104392 -0.16680372
-0.105693944 0.43041548 0.35145524 -0.27737132 0.42100823 0.17296544 -0.22436741 -0.72317064
0.0149763115 -0.70327777 -0.5446675 -0.17254835 -0.007109195 -0.66919965 -0.040278345 0.0989251
0.39444518 0.17178768 0.68325436 0.5283805 -0.49364874 0.095895 0.33117807 0.59698874
0.36092108 0.67006326 -0.13293172 -0.30545878 0.17255881 0.20461835 -0.06760198 0.17921576
-0.0070808693 0.045330204 -0.48576316 -0.3790774 0.43263608 0.012666767 -0.096111216 -0.46557885
-0.35545495 -0.122409254 -0.75550073 -0.46383005 0.35839775 -0.5842701 -0.6033787 -0.65220326

lstm.bias_ih_l0 f4 [16]
00000000: 0c45 60be 98c0 72be 4ff2 43bd 0dc0 dc3e
00000010: 4b19 93be 85b0 383d 0006 a73e ceb3 ac3d
00000020: 24ab 953e 358b 43be 0f32 b8be f242 70be
00000030: 7407 30be fe5b 393e 329d 4ebc 24f4 4ebe
-0.2190134 -0.23706281 -0.047838505 0.43115273 -0.28730235 0.045090217 0.32621765 0.084327325
0.29232132 -0.19096072 -0.35975692 -0.23463038 -0.17190343 0.18101498 -0.0126107205 -0.2021032

lstm.bias_hh_l0 f4 [16]
00000000: 771c d2be dac2 e93d 39f7 c5bc 5cc5 06be
00000010: 9a0f f1bd e80c 353e 4bc0 0abe 1cc7 86be
00000020: d531 ac3d ca48 173e 4543 a63e 36bc 0cbe
00000030: 07bd 953d 2e27 193f 536f d23d 064f 103f
-0.41037342 0.11414118 -0.024165737 -0.13161224 -0.11770554 0.17680705 -0.13549916 -0.26323783
0.08407942 0.1477386 0.32473198 -0.13743672 0.07311445 0.5982541 0.1027514 0.5637058

fc.weight f4 [1, 4]
00000000: cd97 30be 2ecc a6be 9a4c 1fbf 3cef 2bbf
-0.17245407 -0.32577652 -0.6222626 -0.6716192
