Test.pth (torch, 2783 bytes, 5 tensors)

lstm.weight_ih_l0 f4 [16, 1]
-0.15659381 0.094260186 0.3671857 0.6839625 0.04848148 0.34573254 0.3907409 0.057818215
-0.58322376 0.5698761 0.09199096 -0.25843355 0.255818 -0.057572 -0.12394154 -0.1729482
00000000: 215a 20be 7c0b c13d c4ff bb3e 2b18 2f3f
00000010: 8494 463d db03 b13e 310f c83e cbd2 6c3d
00000020: 274e 15bf 66e3 113f c265 bc3d 6751 84be
00000030: 94fa 823e 9ed0 6bbd 10d5 fdbd 5519 31be

lstm.weight_hh_l0 f4 [16, 4]
0.03824731 -0.060147677 -0.13855967 0.29084787 -0.28992292 0.621828 -0.44175187 -0.1714925
0.21134904 0.6449111 -0.38496572 0.27917364 -0.26990044 0.25696814 -0.16487959 -0.031008182
-0.5314009 -0.1931095 -0.25783047 -0.048771616 0.008060107 0.36246067 0.29718798 0.3777659
0.15677707 0.550434 0.22581984 0.33965757 -0.37108713 0.13672607 0.033864662 0.028556714
0.4868733 0.045979463 0.049992055 0.4846723 -0.3814709 0.41382974 -0.14886041 -0.5995872
-0.13091668 -0.65951306 -0.053636238 -0.4539671 -0.56401795 0.0067369873 -0.25648162 -0.14241466
-0.028239217 0.7080369 -0.2295725 0.71125424 -0.2516656 0.590873 -0.42324594 0.41367733
-0.70377994 0.36135337 -0.23603934 -0.18385637 -0.15858369 0.63002926 -0.28576505 0.57613945
00000000: 36a9 1c3d 695d 76bd 96e2 0dbe 03ea 943e
00000010: c770 94be 1f30 1f3f 4d2d e2be bb9b 2fbe
00000020: e26b 583e e518 253f 3a1a c5be d9ef 8e3e
00000030: 6430 8abe 5491 833e 32d6 28be df04 febc
00000040: e409 08bf 7fbe 45be 5b02 84be bfc4 47bd
00000050: 8a0e 043c 7294 b93e 0629 983e 886a c13e
00000060: 2b8a 203e 3ee9 0c3f 513d 673e 99e7 ad3e
00000070: 22ff bdbe eb01 0c3e acb5 0a3d c5ef e93c
00000080: 7547 f93e f654 3c3d 78c4 4c3d f826 f83e
00000090: 2750 c3be 7ee1 d33e dd6e 18be 8c7e 19bf
000000a0: 060f 06be d9d5 28bf acb1 5bbd 606e e8be
000000b0: 7b63 10bf f2c1 dc3b 8f51 83be 26d5 11be
000000c0: ee55 e7bc e841 353f 0e15 6bbe c214 363f
000000d0: 50da 80be 7443 173f b1b3 d8be 84cd d33e
000000e0: ec2a 34bf 4f03 b93e 4cb4 71be d844 3cbe
000000f0: c363 22be 9949 213f cc4f 92be e07d 133f

lstm.bias_ih_l0 f4 [16]
0.6441418 -0.15369757 0.49538633 -0.081173986 0.52714247 0.19456133 -0.12240063 0.2406862
0.1088556 0.18589443 -0.2338329 0.48167142 -0.011978013 -0.19406374 0.30503917 0.11263155
00000000: 7ae6 243f e562 1dbe 47a3 fd3e 8c3e a6bd
00000010: cff2 063f 163b 473e 2ead fabd 7176 763e
00000020: afef de3d 1c5b 3e3e e471 6fbe a39d f63e
00000030: 6e3f 44bc a5b8 46be 182e 9c3e 5fab e63d

lstm.bias_hh_l0 f4 [16]
0.118849926 0.28293067 -0.08477955 -0.2929942 0.37086162 -0.21434474 0.38975695 0.49249777
0.07719007 0.4903512 -0.1922147 0.14323108 0.54271376 0.100676715 0.15379906 0.6542612
00000000: 9767 f33d 4adc 903e e7a0 adbd 5603 96be
00000010: 93e1 bd3e 307d 5bbe 398e c73e ab28 fc3e
00000020: d415 9e3d 500f fb3e eed3 44be 2bab 123e
00000030: 4aef 0a3f 982f ce3d 807d 1d3e a97d 273f

fc.weight f4 [1, 4]
-0.63228977 0.35203314 -0.5316873 0.4363026
00000000: bedd 21bf b03d b43e a91c 08bf 0e63 df3e
